…
          "base_uri": "https://localhost:8080/"
        },
        "trusted": true,
        "_uuid": "56714eecb4da53210dffc55d4aa1f7217512846d",
        "outputId": "e386158f-ca5f-4a51-c095-7c0edb2c7af5"
      },
      "source": [
        "# move the model to GPU, if available\n",
        "device = torch.device(\"cuda\" if torch.cuda.is_available() else \"cpu\")\n",
        "\n",
        "vgg.to(device)"
      ],
      "execution_count": null,
      "outputs": [
        {
          "output_type": "execute_result",
          "data": {
            "text/plain": [
              "Sequential(\n",
              "  (0): Conv2d(3, 64, kernel_size=(3, 3), stride=(1, 1), padding=(1, 1))\n",
              "  (1): ReLU(inplace=True)\n",
              "  (2): Conv2d(64, 64, kernel_size=(3, 3), stride=(1, 1), padding=(1, 1))\n",
              "  (3): ReLU(inplace=True)\n",
              "  (4): MaxPool2d(kernel_size=2, stride=2, padding=0, dilation=1, ceil_mode=False)\n",
              "  (5): Conv2d(64, 128, kernel_size=(3, 3), stride=(1, 1), padding=(1, 1))\n",
              "  (6): ReLU(inplace=True)\n",
              "  (7): Conv2d(128, 128, kernel_size=(3, 3), stride=(1, 1), padding=(1, 1))\n",
              "  (8): ReLU(inplace=True)\n",
              "  (9): MaxPool2d(kernel_size=2, stride=2, padding=0, dilation=1, ceil_mode=False)\n",
              "  (10): Conv2d(128, 256, kernel_size=(3, 3), stride=(1, 1), padding=(1, 1))\n",
              "  (11): ReLU(inplace=True)\n",
              "  (12): Conv2d(256, 256, kernel_size=(3, 3), stride=(1, 1), padding=(1, 1))\n",
              "  (13): ReLU(inplace=True)\n",
              "  (14): Conv2d(256, 256, kernel_size=(3, 3), stride=(1, 1), padding=(1, 1))\n",
              "  (15): ReLU(inplace=True)\n",
              "  (16): Conv2d(256, 256, kernel_size=(3, 3), stride=(1, 1), padding=(1, 1))\n",
              "  (17): ReLU(inplace=True)\n",
              "  (18): MaxPool2d(kernel_size=2, stride=2, padding=0, dilation=1, ceil_mode=False)\n",
              "  (19): Conv2d(256, 512, kernel_size=(3, 3), stride=(1, 1), padding=(1, 1))\n",
              "  (20): ReLU(inplace=True)\n",
              "  (21): Conv2d(512, 512, kernel_size=(3, 3), stride=(1, 1), padding=(1, 1))\n",
              "  (22): ReLU(inplace=True)\n",
              "  (23): Conv2d(512, 512, kernel_size=(3, 3), stride=(1, 1), padding=(1, 1))\n",
              "  (24): ReLU(inplace=True)\n",
              "  (25): Conv2d(512, 512, kernel_size=(3, 3), stride=(1, 1), padding=(1, 1))\n",
              "  (26): ReLU(inplace=True)\n",
              "  (27): MaxPool2d(kernel_size=2, stride=2, padding=0, dilation=1, ceil_mode=False)\n",
              "  (28): Conv2d(512, 512, kernel_size=(3, 3), stride=(1, 1), padding=(1, 1))\n",
              "  (29): ReLU(inplace=True)\n",
              "  (30): Conv2d(512, 512, kernel_size=(3, 3), stride=(1, 1), padding=(1, 1))\n",
              "  (31): ReLU(inplace=True)\n",
              "  (32): Conv2d(512, 512, kernel_size=(3, 3), stride=(1, 1), padding=(1, 1))\n",
              "  (33): ReLU(inplace=True)\n",
              "  (34): Conv2d(512, 512, kernel_size=(3, 3), stride=(1, 1), padding=(1, 1))\n",
              "  (35): ReLU(inplace=True)\n",
              "  (36): MaxPool2d(kernel_size=2, stride=2, padding=0, dilation=1, ceil_mode=False)\n",
              ")"
            ]
          },
          "metadata": {
            "tags": []
          },
          "execution_count": 3
        }
      ]
    },
    {
      "cell_type": "markdown",
…
